dqn_eval_v3.pth (torch, 14565 bytes, 6 tensors)

weight f4 [50, 4]
0	0x3d16b6d5	0.036795456
1	0xbe3c347f	-0.183794
2	0xbdce0f05	-0.100614585
3	0xbdba2124	-0.09088352
4	0x401f62e0	2.4904099
5	0x3ef8e7d3	0.48614368
6	0xc01df63c	-2.468154
7	0x3e396fce	0.18109056
8	0xbc9357dc	-0.01798623
9	0x3d9feebc	0.07809207
10	0x420e1041	35.515873
11	0x3f9e1e29	1.2352954
12	0xbb018bf9	-0.0019767268
13	0x3d45bb9f	0.048274633
14	0x3cceab7b	0.025228253
15	0x3d45d7df	0.048301574
16	0xbf617c79	-0.88080555
17	0xbd183e5e	-0.037168853
18	0xbf7ab225	-0.97928077
19	0xbe1fd8d3	-0.15610056
20	0x3e35a378	0.1773814
21	0x3e7a7861	0.24459983
22	0x3ee0c680	0.43901443
23	0x3d971567	0.07377129
24	0x3e6f03ce	0.23341295
25	0xbf1be815	-0.60901004
26	0xc057ae4e	-3.3700137
27	0xbe256fb4	-0.16155893
28	0x3d666075	0.056244332
29	0xbe81f347	-0.25380918
30	0xbfae91be	-1.3638227
31	0xbdf957c9	-0.12174947
32	0xbd2d439b	-0.0423008
33	0xbd27250f	-0.040806826
34	0xc02a466e	-2.6605487
35	0xbe43ae20	-0.19109392
36	0x3e45c547	0.19313537
37	0xbd75f151	-0.06004459
38	0xbe5efb65	-0.21775587
39	0x3d5a73e7	0.05333319
40	0x3e7582b9	0.23975648
41	0x3f09d952	0.5384723
42	0x401d1fdb	2.4550693
43	0x3f81ffff	1.0156249
44	0xbdc5fd2c	-0.09667429
45	0xbbdaa8d0	-0.006672956
46	0x3ec5eff3	0.3865963
47	0x3d5b766c	0.053579733
48	0xbe8d3c6f	-0.2758517
49	0xbf007b93	-0.5018856
50	0x41443cbc	12.264828
51	0x40083548	2.128252
52	0x3d97f3eb	0.074195705
53	0xbc893042	-0.016746644
54	0xbe12243b	-0.14271633
55	0xbdf3b46d	-0.11899648
56	0x3e075541	0.13216116
57	0x3d6c1146	0.05763366
58	0x3bd73ed8	0.006568771
59	0x3db438e5	0.08799914
60	0xbdb13e63	-0.086544774
61	0x3dc6bccf	0.09703981
62	0xbd8a559b	-0.06754609
63	0x3d64fd4b	0.05590562
64	0xbd1f048c	-0.038822696
65	0xbd1a009f	-0.03759825
66	0x3f5685cb	0.837979
67	0x3dcad5f5	0.0990409
68	0xbb5b0ee4	-0.0033425624
69	0x3b10f673	0.0022119551
70	0x40150a38	2.3287487
71	0xbdc49652	-0.09598984
72	0xbc81c439	-0.015840637
73	0x3d8fe4a9	0.07026035
74	0xbdfeb82b	-0.12437471
75	0x3db3d157	0.08780163
76	0x3d3d06e2	0.046149142
77	0x3c8ca239	0.017167198
78	0x3a84ee92	0.00101419
79	0x3dadc988	0.08485705
80	0x3a0ed370	0.0005448377
81	0xbd8db720	-0.06919694
82	0xbe7e6ce7	-0.2484623
83	0xbca8a0dd	-0.020584518
84	0x3df68773	0.12037554
85	0xbdc2f355	-0.09519068
86	0x3df2ebf0	0.11861408
87	0xbda8bc13	-0.08238997
88	0xbe5ba7f3	-0.21450786
89	0x3d852f83	0.06503203
90	0xbf01004e	-0.5039109
91	0x3d827d5f	0.06371569
92	0xbe06a250	-0.13147855
93	0x3e56768d	0.20943661
94	0x4036df81	2.8573916
95	0x3f0355ac	0.513026
96	0xc0193a75	-2.394193
97	0xbee0ceba	-0.4390772
98	0xc0a87520	-5.2642975
99	0xbed6076d	-0.4180254
100	0xbd2ea619	-0.04263887
101	0xbf2e7cfb	-0.68159455
102	0x409a2881	4.8174443
103	0xbe96416a	-0.29346782
104	0xbec92390	-0.39284945
105	0xbf1323a8	-0.5747628
106	0x41618fd7	14.097617
107	0x3f8a0281	1.0782014
108	0xbd55c2b5	-0.05218764
109	0xbc3f8dde	-0.011691539
110	0xbe6ab5a3	-0.22920851
111	0xbd94666d	-0.07246099
112	0xbdb5dc8e	-0.08879958
113	0x3ec47c5f	0.38376138
114	0x402847e5	2.629388
115	0x3e704f3d	0.23467727
116	0xbd7d28e7	-0.061806586
117	0x3eaec22d	0.3413252
118	0x406b191b	3.6734073
119	0x3e4ac4ee	0.19801685
120	0xbdba65cb	-0.09101447
121	0x3ea32476	0.31863755
122	0xbecf6f69	-0.40514687
123	0x3e6a30e7	0.22870217
124	0xbe84babc	-0.25923717
125	0xbe8f5225	-0.2799236
126	0xc04ab4e9	-3.1672919
127	0xbd8113ce	-0.063026056
128	0xbe7b8ae0	-0.24564695
129	0x3e518764	0.20461804
130	0x4124104e	10.253981
131	0x3e8b200f	0.27172896
132	0xbdab8aff	-0.08376121
133	0x3da6c779	0.08143515
134	0x3eb1316d	0.3460802
135	0x3cdddf0e	0.0270839
136	0x3d7863ff	0.06064224
137	0x3db3e2a6	0.08783464
138	0xbeb16e74	-0.34654582
139	0xbc8cf75b	-0.017207792
140	0x3d28bc6c	0.041195318
141	0xbd1d5081	-0.038406853
142	0xc026bb81	-2.6051943
143	0x3eca1dd8	0.39475894
144	0xbd07c742	-0.03314901
145	0xbdd86330	-0.105657935
146	0xc06e23eb	-3.7209423
147	0xbdcbc944	-0.09950498
148	0xbe64e616	-0.22353396
149	0x3eeae0e6	0.4587471
150	0xc11faf53	-9.980304
151	0xbf81827e	-1.0117948
152	0xbe27e553	-0.16396074
153	0xbd1cd017	-0.038284387
154	0xbecadb1e	-0.39620298
155	0xbca89547	-0.020578993
156	0x3c0c9a9c	0.008581784
157	0x3df568a5	0.1198285
158	0x3deff120	0.11715913
159	0x3da9b905	0.08287243
160	0xbedc709e	-0.4305467
161	0x3eaf53f3	0.34243736
162	0x4000cf14	2.012639
163	0xbd22d5c6	-0.03975465
164	0xbccb6fb2	-0.024833534
165	0x3f370682	0.71494305
166	0x408ba63b	4.364042
167	0x3f219fc7	0.63134426
168	0xbe50687a	-0.20352355
169	0x3eab4f71	0.33459046
170	0x40739c05	3.8063977
171	0x3eb58dee	0.35459846
172	0x3d718e72	0.058973737
173	0x3d7d0813	0.06177528
174	0xbdc62c77	-0.0967645
175	0x3d8671af	0.06564652
176	0xbe8308ee	-0.2559275
177	0x3e38df29	0.18053879
178	0x3fa855a4	1.3151135
179	0xbd3a3597	-0.045461264
180	0x3ccd17ac	0.025035702
181	0x3e97f133	0.29676208
182	0x40eba564	7.3639393
183	0x3f019de8	0.5063157
184	0xbc8342ab	-0.016023
185	0xbe656504	-0.22401816
186	0xbe9543bd	-0.29153243
187	0xbe814d75	-0.25254408
188	0xba828b0f	-0.0009959656
189	0x3d71429f	0.058901425
190	0xbe053638	-0.13008964
191	0x3d42ea9f	0.047587033
192	0xbda7156c	-0.08158383
193	0xbe12f027	-0.14349423
194	0xc0179730	-2.3686028
195	0x3e210447	0.15724288
196	0x3c58ea11	0.0132393995
197	0xbe2e3984	-0.17014128
198	0xc1c9c7ac	-25.222496
199	0xbfc52281	-1.5401155

bias f4 [50]
0	0xbeb05532	-0.3444
1	0xbc09f156	-0.008419355
2	0xbda73eb8	-0.081662595
3	0xbe7a8fec	-0.24468964
4	0xc0377fe0	-2.8671799
5	0xbfa1a7b5	-1.2629305
6	0xbfc751eb	-1.5571874
7	0xbf9e64d8	-1.2374525
8	0xbf9b2b6c	-1.2122626
9	0xbf21303e	-0.62964237
10	0xbff0e4a9	-1.8819782
11	0xbf5fc4e0	-0.8740978
12	0xbf48b786	-0.78405035
13	0xbf083981	-0.53212744
14	0xbf127f05	-0.57225066
15	0xbea49860	-0.32147503
16	0xbf32593f	-0.6966743
17	0xbf477d3d	-0.77925473
18	0xbe93d23c	-0.28871334
19	0xbf0e4f8d	-0.55590135
20	0xbf14de08	-0.5815129
21	0xbeca1d46	-0.3947546
22	0xbf856220	-1.042057
23	0xbfda34d5	-1.7047373
24	0xbbec6a4c	-0.00721482
25	0xbfc86646	-1.5656211
26	0xc0504e50	-3.2547798
27	0xbee1f47a	-0.44131833
28	0xc0081d9f	-2.126808
29	0xbfe62a33	-1.7981628
30	0xbf01e4ab	-0.50739545
31	0xbf86d409	-1.0533458
32	0xc01d3a00	-2.456665
33	0xbefd0aad	-0.49422207
34	0xbf146612	-0.57968247
35	0xbf7fc990	-0.99916935
36	0xbfb1f2fd	-1.3902279
37	0xc03c56c8	-2.9427967
38	0xbf1c2546	-0.60994375
39	0xbebaa7dc	-0.36456192
40	0xbfbaf545	-1.46061
41	0xc0165877	-2.3491495
42	0xbfef70fb	-1.8706354
43	0xbec31450	-0.38101435
44	0xbf9d8cc7	-1.2308587
45	0xc0184b01	-2.3795779
46	0xbf1cce71	-0.61252505
47	0xbe854278	-0.26027274
48	0xbfa50573	-1.2892288
49	0x3e9da13e	0.3078708

weight f4 [50, 50]
0	0x3ddb0f02	0.10696222
1	0x3c9f9016	0.019477885
2	0x3e227873	0.1586626
3	0x3dc3c0f7	0.095582895
4	0xbef66f69	-0.48131874
5	0x3ce9b42a	0.028528292
6	0x3f4b3c3d	0.7938879
7	0xbd54c63b	-0.05194686
8	0xbe63eefd	-0.22259136
9	0xbc95438a	-0.018220682
10	0x3f546288	0.82962847
11	0xbe8c1069	-0.2735627
12	0xbf554d8e	-0.83321464
13	0xbd9144cb	-0.07093199
14	0x3dbdfe90	0.092770696
15	0x3c19b2bf	0.009380995
16	0x3e1c47fa	0.15261832
17	0x3f102ad9	0.5631538
18	0x3cf7f4de	0.030268129
19	0x3da39027	0.07986479
20	0x3d9ba29f	0.07599377
21	0xbd39f36e	-0.04539817
22	0x3d1a30b4	0.037644103
23	0x3fa5f8cf	1.2966555
24	0x3dadba1f	0.084827654
25	0xbbf0e04a	-0.007350956
26	0x3f3bc5bf	0.7334861
27	0xbe393cab	-0.18089549
28	0x4003a36f	2.0568502
29	0x3f5de5ce	0.8667878
30	0xbd361514	-0.044453695
31	0x3e94dd08	0.29074883
32	0xbe9e8305	-0.30959335
33	0x3ca54192	0.020172868
34	0xbe9c6ba9	-0.30550888
35	0xbdcde093	-0.100526
36	0x3f76c4d6	0.963941
37	0x3e836fe1	0.25671294
38	0xbe25269c	-0.1612801
39	0xbce6902f	-0.028144924
40	0xbe340b72	-0.17582491
41	0x3fa1b9e3	1.2634853
42	0x3f990f2c	1.1957755
43	0xbc871535	-0.016489604
44	0x3f24901e	0.64282405
45	0x3e93f549	0.28898075
46	0x3df251ea	0.1183203
47	0x3cf4426a	0.029816825
48	0xbfae5b9c	-1.3621707
49	0xbf0e45a6	-0.55575025
50	0x3db60baf	0.08888947
51	0xbcd1895e	-0.025578197
52	0xbe953d01	-0.29148105
53	0xbdcc1b97	-0.099662
54	0xbddd4c9e	-0.10805629
55	0x3d753b03	0.05987073
56	0xbdfd23d8	-0.12360352
57	0xbc89c96a	-0.016819675
58	0x3b009dda	0.0019625337
59	0xbd03d878	-0.032188863
60	0xbe645f57	-0.22301994
61	0xbcce8ff0	-0.02521512
62	0xbeb7d3f8	-0.35903907
63	0x3d1f47ab	0.038886707
64	0x3d7b80dd	0.06140219
65	0x3e67372f	0.22579645
66	0xbdbf3ad9	-0.09337396
67	0x3af15a23	0.0018413704
68	0x3dbef714	0.0932447
69	0x3d57705f	0.0525974
70	0x3d404e8a	0.0469499
71	0xbcc04d33	-0.023474311
72	0x3dfbbcaa	0.12291844
73	0xbcd4798d	-0.025936866
74	0xbe506543	-0.20351128
75	0xbe86aa64	-0.26301873
76	0xbd76ba85	-0.060236473
77	0xbe0af998	-0.13571775
78	0xbe121f79	-0.14269818
79	0xbe0a995a	-0.13535061
80	0xbd8247b5	-0.06361333
81	0x3cb6d7b8	0.02231966
82	0xbeaab33f	-0.3333988
83	0xbe1d794b	-0.15378301
84	0xbe135a0e	-0.14389822
85	0xbed634a7	-0.41837046
86	0xbe18e96d	-0.14932795
87	0xbe6c2e62	-0.23064569
88	0x3e04b15f	0.12958287
89	0x3d4ab846	0.049492143
90	0xbe3af80f	-0.1825869
91	0xbe9276a0	-0.2860613
92	0x3d8de4e6	0.069284245
93	0xbd5f05f7	-0.054449048
94	0xbda8579f	-0.082198374
95	0xbf0dac04	-0.553406
96	0xbdd36443	-0.10321858
97	0x3d5c9c57	0.053860035
98	0xbe285108	-0.16437161
99	0xbf01040e	-0.5039681
100	0x3d8b1e97	0.06792944
101	0xbda6af3d	-0.08138893
102	0xbe9357b3	-0.28777847
103	0xbd67dbfa	-0.05660627
104	0xbdc59651	-0.09647811
105	0xbe02a032	-0.12756422
106	0x3d108cd5	0.035290558
107	0xbdd5edfd	-0.10445783
108	0xbe184b98	-0.14872587
109	0x3e1c7807	0.15280162
110	0x3dfa7300	0.12228966
111	0x3d69ccf5	0.057080228
112	0xbd89c536	-0.06727068
113	0xbd2d0da4	-0.042249337
114	0x3d99531e	0.074865565
115	0xbd131f46	-0.035918497
116	0x3e0680e3	0.13135104
117	0x3dcc234b	0.09967669
118	0x3c9017f7	0.017589552
119	0x3cc63381	0.02419448
120	0xbe19d351	-0.15022017
121	0x3d156fab	0.036483448
122	0xbe2c8718	-0.16848409
123	0x3c792022	0.015205415
124	0xbd905550	-0.07047522
125	0xbc0c8a5a	-0.008577907
126	0xbd6f8415	-0.058475573
127	0x3c8c7bc0	0.017148852
128	0x3e44b59a	0.192099
129	0xbd0fefab	-0.035140675
130	0xbdae5e27	-0.08514052
131	0xbda33a59	-0.07970113
132	0xbe71383e	-0.23556611
133	0xbe6922d8	-0.22767198
134	0x3bbb64a7	0.005718786
135	0xbd6dedf3	-0.058088254
136	0xbd81421e	-0.06311439
137	0xbdd40ba4	-0.10353783
138	0x3d564237	0.05230924
139	0x3d3fe003	0.046844494
140	0x3d7da0c7	0.061920907
141	0x3cbe0019	0.023193406
142	0xbda44b7e	-0.080222115
143	0xbbb6babf	-0.005576461
144	0xbd581a1c	-0.052759275
145	0xbbb78f9c	-0.0056018364
146	0xbcd3b1db	-0.025841644
147	0x3d703358	0.058642715
148	0xbd50cbe8	-0.05097571
149	0xbdadd20e	-0.084873304
150	0x3c68dda7	0.014213002
151	0xbe8b46dd	-0.27202502
152	0x3c88554d	0.016642237
153	0xbdc04523	-0.09388187
154	0xbe0d8b49	-0.13822664
155	0x3d0742a7	0.03302255
156	0xbe824008	-0.25439477
157	0xbedfc9f3	-0.43708763
158	0xbe9880f4	-0.29785883
159	0x3da350df	0.07974409
160	0xbe128e8c	-0.1431219
161	0x3d83db4e	0.064383134
162	0xbedef0d0	-0.435431
163	0x3cb8a78d	0.022540832
164	0x3d1864db	0.03720556
165	0x3d02b97e	0.03191518
166	0x3de1d892	0.11027636
167	0xbd42ab52	-0.047526665
168	0x3c3ec724	0.0116441585
169	0xbe508fda	-0.20367375
170	0xbe5d73e5	-0.21626242
171	0x3d3f9d3f	0.04678082
172	0x3deeadf7	0.11654275
173	0x3c29c037	0.010360769
174	0xbdd7bc28	-0.10533935
175	0xbd4e1b77	-0.05031916
176	0xbe95d5ab	-0.29264578
177	0x3dc9835f	0.0983951
178	0xbe1811d0	-0.14850545
179	0x3cc2f7f4	0.023799874
180	0x3dcf9bef	0.10137164
181	0xbe7f3a7c	-0.24924654
182	0x3ce52bdd	0.027975017
183	0xbd31a8e3	-0.043373954
184	0xbe7f98b2	-0.24960592
185	0xbe8dffaf	-0.27734134
186	0xbea00667	-0.31254885
187	0xbe822ca8	-0.25424695
188	0xbe1bd67b	-0.15218537
189	0x3e221629	0.15828766
190	0xbea9131c	-0.33022392
191	0xbc896e07	-0.016776098
192	0xbd86cc8e	-0.065819845
193	0xbcfe3f90	-0.031036168
194	0x3cac5247	0.021035327
195	0x3c42637a	0.011864537
196	0xbe441e4c	-0.19152182
197	0x3c8cf1a3	0.017205065
198	0xbf0e18ac	-0.55506396
199	0xbed429d6	-0.41438168
200	0x3dd5dba0	0.10442281
201	0xbe15289c	-0.14566272
202	0xbe898473	-0.26858863
203	0x3ce9529d	0.028481776
204	0x3d24e71d	0.04025947
205	0xbd9d4b87	-0.07680421
206	0xbd85fc33	-0.06542244
207	0xbe3bd928	-0.18344557
208	0xbee67095	-0.45007768
209	0xbda184c7	-0.078866534
210	0xbed03808	-0.40667748
211	0xbd9d1c97	-0.07671469
212	0xbec4e89c	-0.38458717
213	0xbdfc61d8	-0.1232335
214	0xbe62902a	-0.22125307
215	0x3e230476	0.1591967
216	0x3e106f90	0.14105058
217	0xbdc5c9d4	-0.09657636
218	0x3dac1c45	0.084038295
219	0xbde0a7cb	-0.10969504
220	0xbe009c9c	-0.12559742
221	0xbe41a4a7	-0.18910466
222	0x3e498878	0.19680965
223	0xbd32d365	-0.043658633
224	0xbdc6d3c6	-0.09708361
225	0xbebea2c7	-0.37233564
226	0xbf1a1fb5	-0.6020463
227	0xbe846679	-0.2585943
228	0xbd069c00	-0.032863617
229	0xbdca2c2b	-0.098717056
230	0xbd82b036	-0.06381266
231	0xbd9c32c7	-0.076268725
232	0xbe0d6347	-0.13807403
233	0x3d121caf	0.035671886
234	0xbe1dfbaf	-0.15428041
235	0xbe76d20a	-0.24103561
236	0xbe84a48a	-0.25906783
237	0xbc3092f3	-0.010777223
238	0x3c40b8de	0.011762826
239	0xbd99346b	-0.07480701
240	0x3b994aec	0.004678121
241	0xbe63ac47	-0.22233687
242	0xbdf6aabc	-0.12044284
243	0x3d24f1b1	0.040269557
244	0xbe4ce749	-0.20010103
245	0xbecc8612	-0.39946038
246	0xbdf60013	-0.12011733
247	0xbd201d28	-0.039090306
248	0xbef1d427	-0.47232172
249	0xbecc9ea2	-0.39964777
250	0x3d739e2a	0.05947701
251	0xc024c55b	-2.5745456
252	0x3de6f9ad	0.112780906
253	0x3c8c028d	0.01709106
254	0xbf95ba84	-1.1697545
255	0xbf072197	-0.5278563

bias f4 [50]
0	0xc0657ddd	-3.585807
1	0xbec1af31	-0.37828973
2	0xbee007db	-0.43755993
3	0xbed7d2dd	-0.42153063
4	0xbf256953	-0.64613837
5	0xbf0f1a1a	-0.558992
6	0xbf3b56b6	-0.73179185
7	0xbf173a4e	-0.5907334
8	0xbed9dc07	-0.4255068
9	0xbf57f4f5	-0.8435815
10	0xbde7be65	-0.11315612
11	0xbeeccd74	-0.46250498
12	0xbebcee8c	-0.36900747
13	0xbf2a0d99	-0.66427
14	0xbe9e6708	-0.30937982
15	0x3f8c5d36	1.0965946
16	0xbf77adcb	-0.9674956
17	0xbfa41797	-1.2819699
18	0xbefc6929	-0.4929898
19	0xbefb9b7b	-0.4914206
20	0xc06bdd9e	-3.6854014
21	0xbe810ab1	-0.2520347
22	0xbe9f8c0e	-0.3116154
23	0xbf223a42	-0.63370144
24	0xbe882866	-0.26593322
25	0xbf93a4f7	-1.1534718
26	0xbf47a3e3	-0.77984446
27	0xbdd11752	-0.10209526
28	0xbeb6b669	-0.35686043
29	0xbf03a7f3	-0.51428145
30	0xbecee4bb	-0.40408882
31	0xbf17d873	-0.5931465
32	0xbeb4ceef	-0.35314128
33	0xbe577aa6	-0.2104288
34	0xbfa3606d	-1.2763802
35	0xbd96dc7e	-0.07366274
36	0xbd8f00a7	-0.06982546
37	0x3fcd1cc2	1.6024401
38	0xbf7ee43e	-0.9956702
39	0xbe9ede52	-0.31028992
40	0xbefc1061	-0.49231246
41	0xbf5cc6c0	-0.8624077
42	0x3f7bcd0d	0.9835976
43	0xbf224b5c	-0.6339624
44	0xbd37a374	-0.044833615
45	0xbea35910	-0.31903887
46	0xbd43840b	-0.047733348
47	0xbf366d12	-0.7126018
48	0xbe739d20	-0.23790407
49	0x4056424d	3.3477967

weight f4 [2, 50]
0	0x3e70ef3d	0.23528762
1	0x3e1d5c7d	0.15367313
2	0x3da30745	0.07960371
3	0x3c28a95f	0.010294287
4	0x3e9ad0fd	0.3023757
5	0xbe7fd774	-0.24984533
6	0xbe7f9fb1	-0.24963261
7	0xbdb24799	-0.087050624
8	0xbe7dc73f	-0.24783038
9	0xbe8c50c2	-0.27405363
10	0xbd08a925	-0.033364434
11	0xbe86fa97	-0.2636306
12	0x3d26add7	0.04069313
13	0xbe0792b8	-0.13239563
14	0xbe8f0b5e	-0.2793836
15	0xbe44a32f	-0.19202875
16	0xbf06aba5	-0.5260566
17	0xbd4f44e1	-0.050602797
18	0xbe4f31da	-0.2023386
19	0xbe6835fd	-0.22676845
20	0xbf7b4d51	-0.9816485
21	0xbe71481b	-0.23562662
22	0xbdfa976a	-0.12235911
23	0xbbfa3093	-0.007635185
24	0xbddbda0a	-0.10734947
25	0xbc6b85e5	-0.014375185
26	0xbd635228	-0.055498272
27	0x3daafc37	0.083488874
28	0xbe32f654	-0.17476779
29	0x3e0e13b9	0.13874711
30	0x3df8cf5b	0.12148925
31	0xbeb6ff04	-0.35741436
32	0x3e69a37b	0.22816269
33	0x3bae82a3	0.0053256317
34	0x3e842dca	0.25816184
35	0xbb0be13b	-0.0021343965
36	0x3eabeb5b	0.33578
37	0xbee0e909	-0.43927792
38	0xbdcfa894	-0.101395756
39	0xbe7400d9	-0.23828448
40	0xbe5a732b	-0.21332996
41	0x3e4fe25f	0.20301197
42	0xbe34ffb2	-0.17675665
43	0xbe800a8d	-0.2500805
44	0xbd5c0fe4	-0.053726092
45	0xbcede888	-0.029041544
46	0x3b05eb89	0.002043458
47	0x3e18a7df	0.14907788
48	0xbe9e5718	-0.30925822
49	0x3f8de373	1.1085037
50	0x3e806ba5	0.25082126
51	0x3ebb8f79	0.36632898
52	0x3e800eeb	0.25011382
53	0xbe85311f	-0.2601404
54	0x3d308f22	0.043105252
55	0xbdf21c06	-0.11821751
56	0xbec5f080	-0.3866005
57	0x3e5bf2bc	0.21479315
58	0x3a900d46	0.0010990284
59	0xbe5a3cef	-0.21312307
60	0xbbea2e27	-0.007146615
61	0xbe207015	-0.15667756
62	0x3e4ce4b2	0.20009115
63	0xbcd2b795	-0.025722304
64	0xbc9e360f	-0.019312887
65	0xbe84a3a5	-0.259061
66	0x3e092361	0.13392402
67	0xbfd7113a	-1.6802132
68	0xbc92e5bf	-0.017931817
69	0x3cec08a2	0.02881271
70	0xbf8079ad	-1.0037133
71	0xbe45b10e	-0.19305822
72	0x3dc33d63	0.09533193
73	0x3be9893d	0.007126956
74	0x3bd4a6fc	0.0064896327
75	0xbf1f308c	-0.6218345
76	0xbe9aa666	-0.30205077
77	0xbb8d3ea9	-0.004310448
78	0x3e8dec43	0.27719316
79	0xbe723fd6	-0.23657164
80	0x3c9c66f0	0.019092053
81	0x3e5d9759	0.21639766
82	0x3d9e8825	0.07740811
83	0xbe607e50	-0.21923184
84	0xbe1abeaf	-0.15111803
85	0xbd205674	-0.039144948
86	0xbd27873a	-0.040900446
87	0x3d9dde61	0.07708431
88	0xba9c7b2f	-0.0011938567
89	0x3de30143	0.11084225
90	0xbe0e8f35	-0.13921817
91	0xbeae63b3	-0.3406044
92	0xbe340f9f	-0.17584084
93	0xbe8310c5	-0.25598732
94	0x3d1a124a	0.037615098
95	0x3e49285f	0.19644307
96	0xbe15343f	-0.14570712
97	0xbdde9a0c	-0.10869226
98	0x3dcbb188	0.09945971
99	0x3f8f84db	1.1212419

bias f4 [2]
0	0x408218f4	4.065546
1	0x405c2550	3.4397774
